assets/model/model.tflite (tflite, 540608 bytes, 6 tensors)

dense_17/bias f4 [10]
0	0xbe1eafce	-0.15496752
1	0xbea3946b	-0.3194917
2	0xbdb670cc	-0.08908233
3	0xbe27d2b5	-0.16388972
4	0xbd442bec	-0.04789345
5	0xbd81e14d	-0.06341801
6	0xbe119b4c	-0.14219397
7	0xbe5a028e	-0.21290037
8	0x3f3f5b30	0.74748516
9	0x3ddcd70e	0.10783206

dense_16/bias f4 [256]
0	0x3edb2af4	0.42806208
1	0xbe363575	-0.1779383
2	0xbe51beae	-0.20482895
3	0xbea66b15	-0.32503572
4	0xbdd511a6	-0.10403757
5	0xbd12c71e	-0.035834424
6	0xbdf9a756	-0.1219012
7	0xbd8e2112	-0.069399014
8	0xbe6acacf	-0.22928928
9	0xbee36f2c	-0.44420755
10	0x3e23f7f7	0.1601256
11	0xbe822e98	-0.25426173
12	0xbe1be67f	-0.15224646
13	0xbf136b18	-0.5758529
14	0xbee0f7e7	-0.43939134
15	0xbec75a40	-0.38936043
16	0xbed3f470	-0.4139743
17	0xbd8d45a4	-0.068980485
18	0xbd23b02d	-0.039962936
19	0xbe80a09e	-0.2512254
20	0x3d944b24	0.072408944
21	0xbe6cb424	-0.23115593
22	0xbef6cfdb	-0.48205456
23	0xbe42741d	-0.18989606
24	0xbde24c4b	-0.11049708
25	0xbe5b50e0	-0.2141757
26	0xbe360f16	-0.17779192
27	0xbe941662	-0.28923327
28	0xbe8077d8	-0.25091434
29	0xbe825d60	-0.25461864
30	0x3e6ed23c	0.23322386
31	0x3d22c12b	0.039735
32	0x3e8aaeb0	0.270864
33	0xbed51a55	-0.41621652
34	0x3e222cec	0.15837449
35	0x3d6d9582	0.05800391
36	0xbe9f6e36	-0.31138772
37	0xbe0b83a1	-0.13624431
38	0x3d99f5f6	0.075176165
39	0xbe6f0480	-0.2334156
40	0xbe3d148e	-0.18464872
41	0x3e536bb9	0.20646562
42	0x3d35cd49	0.04438523
43	0xbf03a75c	-0.51427245
44	0xbe26b1d2	-0.1627877
45	0xbd85816d	-0.06518827
46	0xbe843dfd	-0.25828543
47	0xbe47d04a	-0.1951305
48	0xbe47a18d	-0.1949522
49	0x3ec86366	0.39138335
50	0xbe1d2735	-0.15346988
51	0xbe8f7b47	-0.2802374
52	0xbec7e408	-0.39041162
53	0xbe87a699	-0.2649429
54	0xbec58a35	-0.38582006
55	0xbe5ebab4	-0.21750909
56	0xbd35b07e	-0.04435777
57	0xbe4b8898	-0.19876325
58	0x3d3bf99c	0.045892343
59	0xbeb21ac3	-0.34786043
60	0xbdb2ff5e	-0.08740114
61	0xbf014f5e	-0.5051173
62	0xbddf696b	-0.10908779
63	0xbdcdc796	-0.100478336
64	0x3d107bcb	0.03527431
65	0x3e5f3d11	0.21800639
66	0x3d016e7a	0.0315995
67	0x3e1f02cd	0.15528412
68	0x3ccb9ea1	0.024855914
69	0xbe933bae	-0.2875647
70	0xbd962143	-0.07330563
71	0x3ea2488c	0.31695974
72	0x3d9ebddf	0.07751059
73	0xbd9d6646	-0.07685523
74	0xbe62d294	-0.22150642
75	0x3e611e90	0.21984315
76	0xbcae56a1	-0.021281542
77	0xbe9ce6bc	-0.30644786
78	0xbe068c69	-0.131395
79	0x3cf26627	0.029589726
80	0x3cf98f3b	0.030463805
81	0xbc918d38	-0.017767534
82	0xbe209565	-0.1568199
83	0xbea4bb24	-0.32174027
84	0xbe46c683	-0.19411664
85	0xbf01c26e	-0.506873
86	0xbe9ec384	-0.31008542
87	0x3db4fec9	0.08837659
88	0xbd4c0d08	-0.049817115
89	0xbe687eed	-0.22704668
90	0x3e2b40a4	0.16723877
91	0xbe3f65ac	-0.18691128
92	0xbeb8c19e	-0.36085218
93	0xbe4d2d7e	-0.20036885
94	0xbd026436	-0.03183385
95	0xbecd1290	-0.40053225
96	0xbda73684	-0.08164695
97	0xbcdfd1d9	-0.027321743
98	0xbc9de5e2	-0.019274656
99	0xbec75694	-0.3893324
100	0xbeb8cfe8	-0.3609612
101	0x3e83ee31	0.25767663
102	0x3dd8e998	0.105914295
103	0xbedb40a3	-0.4282275
104	0xbe8d29ed	-0.2757105
105	0xbe087fd6	-0.13330016
106	0xbcb04c5e	-0.02152079
107	0xbd1c54ad	-0.03816669
108	0xbe076bb6	-0.13224682
109	0xbea117ee	-0.3146357
110	0xbe541c9f	-0.20714043
111	0xbe54d76b	-0.207853
112	0xbe777327	-0.24165021
113	0xbe5a75f0	-0.21334052
114	0xbea37b68	-0.3193009
115	0x3cdeef59	0.02721374
116	0xbe39ced6	-0.18145308
117	0xbe5b03f4	-0.21388227
118	0xbd13f148	-0.036118776
119	0x3d9e37fa	0.077255204
120	0xbecde564	-0.40214074
121	0xbead4236	-0.33839577
122	0xbe977a26	-0.2958538
123	0xbe6b1e76	-0.22960839
124	0xbeb7f039	-0.35925463
125	0xbe4aaae6	-0.19791755
126	0xbe31ee98	-0.17376173
127	0xbe9bc333	-0.30422363
128	0xbe414006	-0.18872079
129	0xbe44f72b	-0.19234912
130	0xbdb76e2b	-0.0895656
131	0xbec5bc5d	-0.38620272
132	0x3de83fd0	0.11340296
133	0xbbd65311	-0.006540664
134	0x3e239e85	0.15978439
135	0xbea097da	-0.31365854
136	0x3c77335f	0.015087931
137	0xbe57ca03	-0.21073155
138	0xbe91b32c	-0.2845701
139	0xbe7babb4	-0.24577218
140	0xbe530ff7	-0.20611559
141	0xbe23967f	-0.15975378
142	0x3e047947	0.12936889
143	0xbb8dd47f	-0.00432831
144	0x3cc6abf7	0.024251921
145	0x3de767d0	0.112990975
146	0xbde894c5	-0.113565005
147	0xbea227e3	-0.31671056
148	0x3e3056ae	0.17220566
149	0xbcf0be52	-0.029387627
150	0xbea3d268	-0.31996465
151	0xbe3b5158	-0.18292749
152	0xbaa33b48	-0.001245358
153	0xbe8a1e6b	-0.26976332
154	0xbe32bdf4	-0.17455274
155	0xbe1e9a8f	-0.15488647
156	0x3be9fd10	0.007140763
157	0x3d95f2d9	0.0732171
158	0xbe03f74d	-0.12887307
159	0xbda2f83f	-0.079575054
160	0x3d646318	0.055758566
161	0xbf0ac35d	-0.5420435
162	0xbe053bd8	-0.1301111
163	0xbe0c0ba1	-0.13676311
164	0xbeabbefb	-0.33544144
165	0xbe896671	-0.2683597
166	0xbe3d5a81	-0.18491556
167	0xbf1bf533	-0.6092102
168	0xbea806b9	-0.3281763
169	0xbedc405f	-0.4301786
170	0x3d559185	0.05214073
171	0x3d05bd1d	0.032651056
172	0xbe149e19	-0.14513434
173	0xbd95cd8e	-0.07314597
174	0xbe57117d	-0.21002765
175	0xbe9a2a7d	-0.3011054
176	0xbeb78b48	-0.3584845
177	0xbf06c171	-0.5263892
178	0x3e0d80f8	0.13818729
179	0xbc0c7045	-0.008571689
180	0xbe4209f3	-0.18949108
181	0xbdec6367	-0.11542397
182	0xbedec357	-0.43508407
183	0xbe589da2	-0.21153882
184	0xbde881bd	-0.113528706
185	0xbe14a967	-0.14517747
186	0x3e656e55	0.2240537
187	0xbf09bb2b	-0.5380122
188	0xb994a709	-0.0002835321
189	0x3ca2d074	0.019874789
190	0xbf0eb3d9	-0.55743176
191	0xbe7daa32	-0.24771956
192	0x3dfb5911	0.122728474
193	0xbe3ebc84	-0.186266
194	0xbe3988ce	-0.18118593
195	0xbe81e999	-0.25373533
196	0xbe565ec0	-0.20934582
197	0xbed55a6e	-0.41670555
198	0x3de168d6	0.11006324
199	0xbebd2997	-0.36945793
200	0xbe2d8148	-0.16943848
201	0x3e687025	0.2269903
202	0xbe01d105	-0.12677391
203	0x3dd979a8	0.10618907
204	0xbcf2c3cb	-0.029634377
205	0xbebe14eb	-0.37125334
206	0xbecfdc1b	-0.40597615
207	0xbd145b14	-0.03621967
208	0xbe8dd3d6	-0.2770068
209	0xbe81562d	-0.2526106
210	0x3e2f1865	0.1709915
211	0xbe19f9b6	-0.15036663
212	0xbd6bd3b1	-0.05757493
213	0xbf22c2de	-0.63578594
214	0xbccfa2d0	-0.02534619
215	0xbe85caa4	-0.26131165
216	0xbeb1b960	-0.34711742
217	0xbef86b7b	-0.485195
218	0xbe077d99	-0.13231505
219	0xbe87c6ad	-0.26518765
220	0xbcef0c61	-0.029180707
221	0xbe269ded	-0.16271181
222	0x3e0af56b	0.13570182
223	0xbe8d42b4	-0.27589953
224	0xbe8810a8	-0.26575208
225	0xbd2f1e93	-0.042753767
226	0xbdceb216	-0.10092561
227	0xbe1bca4f	-0.15213893
228	0xbe89e30b	-0.26931033
229	0xbe0fe6d6	-0.140529
230	0xbb4c883c	-0.0031209132
231	0xbe9ef8bf	-0.31049153
232	0x3e637268	0.22211611
233	0xbe2a0933	-0.16605072
234	0xbe1039dc	-0.14084572
235	0xbdf677d8	-0.12034577
236	0xbe31a522	-0.1734815
237	0xbe56b149	-0.20966066
238	0xbdb77ecb	-0.08959731
239	0xbdbf61e3	-0.09344842
240	0xbea30175	-0.3183705
241	0xbe5c091f	-0.21487854
242	0xbe96aab5	-0.29427114
243	0xbc80bd7c	-0.015715353
244	0xbef760a1	-0.4831591
245	0xbd33b331	-0.043872062
246	0xbe7eb835	-0.24874957
247	0xbd9d9b3c	-0.07695624
248	0xbde4ec0a	-0.111778334
249	0xbdb03e6f	-0.08605658
250	0xbcbc77e7	-0.023006393
251	0xbe1ae53c	-0.15126508
252	0x3e29dd1f	0.16588257
253	0xbeadc60e	-0.33940166
254	0xbe6ba362	-0.23011544
255	0xbe8e1499	-0.2775009

dense_15/bias f4 [512]
0	0x3dc6b513	0.09702506
1	0xbccaff3b	-0.024779906
2	0x3df26fa4	0.118377
3	0xbdf253ad	-0.11832366
4	0x3e9a3b23	0.30123243
5	0x3b876dcd	0.0041329623
6	0x3ba066dc	0.0048950743
7	0xb97f2ed8	-0.00024336146
8	0xbd2fd943	-0.042931806
9	0xbe4535b5	-0.19258769
10	0xbd29cb7e	-0.04145383
11	0xbd39d5e9	-0.045370016
12	0xbc9c86c8	-0.019107237
13	0xbdce1e07	-0.10064321
14	0x3ddccb24	0.107809335
15	0xbd8f1c38	-0.06987804
16	0x3ce3e71e	0.027820166
17	0x3da39541	0.07987452
18	0xbd64fb13	-0.055903506
19	0xbdc3bab0	-0.09557092
20	0xbcb8d3b0	-0.022561878
21	0x3d68dfde	0.05685412
22	0xbe07e578	-0.13271129
23	0xbe6994fe	-0.22810742
24	0x3d4a7dca	0.049436368
25	0xbe8d7654	-0.2762934
26	0x3c68074d	0.014161897
27	0xbd9bac95	-0.07601277
28	0xbd1f5c54	-0.03890641
29	0xbdc2715a	-0.09494276
30	0xbd65a9bb	-0.05607007
31	0x3dd893c2	0.105750576
32	0x3de3c685	0.11121849
33	0xbdf70f6d	-0.12063489
34	0xbdbf8201	-0.09350968
35	0xbe09164e	-0.13387415
36	0xbe55e10a	-0.20886627
37	0xbe2af1fa	-0.16693869
38	0xbe188da0	-0.14897776
39	0x3c3a90df	0.011387079
40	0x3dbf009b	0.09326287
41	0xbdf98326	-0.12183218
42	0x3ccc278a	0.024921197
43	0xbdd4b736	-0.10386507
44	0xbcde5a78	-0.027142748
45	0xbd8833ff	-0.066505425
46	0xbe8687c0	-0.26275444
47	0xbd1c1525	-0.038106102
48	0xbd5d2c43	-0.05399729
49	0xbe40b6ca	-0.18819728
50	0xbd07cfeb	-0.03315727
51	0xbe044866	-0.12918243
52	0xbe1b7317	-0.15180622
53	0xbe1fe098	-0.1561302
54	0xbdb25dcc	-0.087092966
55	0xbdb1a11e	-0.08673309
56	0xbe2d2d60	-0.1691184
57	0x3cf1cbf0	0.02951619
58	0x3d39be0d	0.045347262
59	0xbd9859a6	-0.07438974
60	0xbce404f1	-0.027834387
61	0x3d4fcfbd	0.050735224
62	0xbe98f485	-0.29874054
63	0xbc77dbc3	-0.015128079
64	0x3af5c10b	0.0018749548
65	0xbe1ce6b3	-0.1532238
66	0x3d97d30e	0.07413302
67	0xbd1cead0	-0.038309872
68	0x3d2eb6c5	0.04265477
69	0x3e2cff3d	0.1689424
70	0xbddc3f1a	-0.10754223
71	0x3bc8c559	0.0061270413
72	0xbcfcf5c8	-0.030878916
73	0xbd103082	-0.03520251
74	0x3d0c96cd	0.034323502
75	0xbd64f7a7	-0.055900242
76	0x3ccb55c3	0.024821168
77	0xbcd78f29	-0.026313381
78	0xbc63f405	-0.013913159
79	0x3dc93af0	0.098256946
80	0x3d8b2faa	0.067962006
81	0xbce9dc86	-0.028547537
82	0x3d9fe55e	0.0780742
83	0xbe3598fc	-0.1773414
84	0x3d4c1e99	0.049833868
85	0xbdd2c9a1	-0.10292364
86	0xbd9ee912	-0.077592984
87	0x3d2a779b	0.04161797
88	0xbd763b91	-0.0601154
89	0x3bb1a6a7	0.005421478
90	0xbe4e7a59	-0.2016386
91	0xbdc787ad	-0.09742675
92	0xbd876251	-0.06610549
93	0x3c12b656	0.008954605
94	0xbe4cc661	-0.1999755
95	0xbca10987	-0.019657863
96	0xbe43ec4e	-0.19133112
97	0xbe529bfa	-0.20567313
98	0xbe50489d	-0.203402
99	0xbd063a86	-0.032770656
100	0xbdb1f410	-0.08689129
101	0xbe586f85	-0.21136291
102	0xbe99d197	-0.30042717
103	0xbcc28968	-0.023747161
104	0x3dbcfd16	0.0922796
105	0x3d524cfc	0.05134295
106	0xbdb03f91	-0.08605874
107	0x3d825b09	0.0636502
108	0xbe0711ee	-0.13190433
109	0x3d8fd52e	0.07023083
110	0xbe32ebd1	-0.1747277
111	0xbd6256dc	-0.055258617
112	0x3d9270b5	0.071504034
113	0xbe5a3be4	-0.21311909
114	0x3c97a145	0.018509516
115	0xbe4663ba	-0.1937398
116	0xbd5ea92d	-0.054360557
117	0x3d5a7dd0	0.05334264
118	0x3ca85dac	0.020552479
119	0xbc4fabaa	-0.012675205
120	0xbe791abb	-0.24326603
121	0xbd7469c1	-0.059671167
122	0xbe1d29cf	-0.1534798
123	0x3df319cf	0.11870157
124	0x3d9dc26b	0.07703098
125	0xbda54d84	-0.080714256
126	0xbd0d4d69	-0.034497652
127	0xbd8033bd	-0.06259868
128	0x3d3389a3	0.043832432
129	0xbe28f9f3	-0.16501598
130	0xbdff37c0	-0.12461805
131	0xbdb03556	-0.08603923
132	0xbda3be02	-0.079952255
133	0xbd5e6f38	-0.054305285
134	0x3de97cdd	0.11400769
135	0x3c71184e	0.014715267
136	0x3cf3327d	0.02968716
137	0xbce53f05	-0.027984152
138	0xbd8ec752	-0.06971611
139	0xbc714534	-0.014725972
140	0x3da380c1	0.07983542
141	0xbe278593	-0.16359548
142	0x3dda38fc	0.106554
143	0xbe384181	-0.17993738
144	0xbd802ef7	-0.06258958
145	0x3d40ff3d	0.047118414
146	0x3d6158c0	0.05501628
147	0x3d7850d7	0.06062397
148	0xbe83487c	-0.2564124
149	0x3df14b3d	0.11781929
150	0xbd6204fd	-0.05518054
151	0x3d2c60fb	0.042084675
152	0xbe5c4d11	-0.21513774
153	0xbc64eb25	-0.013972078
154	0x3c5c1c64	0.013434503
155	0x3de48941	0.111589916
156	0x3d51107d	0.051041115
157	0x3d7e1b10	0.062037528
158	0x3d9ab1b8	0.075534284
159	0xbd9ac174	-0.075564295
160	0xbdebefb8	-0.11520332
161	0xbe09127f	-0.13385962
162	0x3e0fbefa	0.14037696
163	0xbdbb44c7	-0.091439776
164	0xbd7346c6	-0.059393667
165	0xbe3cb064	-0.18426663
166	0xbba0b5b8	-0.004904475
167	0xbd51c034	-0.05120869
168	0x3c9fc222	0.01950175
169	0xbe27ec21	-0.1639867
170	0xbca59179	-0.020210968
171	0xbcd6c195	-0.026215354
172	0x3da0d316	0.078527614
173	0xbd9d71e7	-0.07687741
174	0x3d82f8e3	0.063951276
175	0xbda8fdc0	-0.08251524
176	0xbd5524cb	-0.05203704
177	0x3ddf48a1	0.10902525
178	0x3d55bcb0	0.0521819
179	0xbdf5714a	-0.11984499
180	0x3db9eafe	0.09078024
181	0xbda66cc0	-0.08126211
182	0xbe385ca8	-0.18004096
183	0x3c238e5b	0.009982671
184	0xbddfbfbf	-0.109252445
185	0xbe424800	-0.18972778
186	0xbb81c066	-0.0039597033
187	0x3d7a2529	0.061070595
188	0xbda4eabe	-0.08052586
189	0xbdbf39fd	-0.09337232
190	0xbc9d7333	-0.01921997
191	0x3dabf1d0	0.083957314
192	0xbe14e50f	-0.14540504
193	0xbe7c5f56	-0.24645743
194	0xbe0352b9	-0.12824525
195	0xbcc73e87	-0.024321808
196	0xbe4ec0b7	-0.20190702
197	0xbd9ae4bf	-0.07563161
198	0xbe77f05e	-0.24212787
199	0xbdf98516	-0.12183587
200	0xbcf942b4	-0.030427314
201	0xbdb34cb9	-0.08754868
202	0x3d9a1dad	0.075251915
203	0xbd2d21cc	-0.04226856
204	0xbb4e00bb	-0.003143354
205	0x3de1cc66	0.11025314
206	0x3d82874a	0.063734606
207	0xbd8f58ab	-0.06999334
208	0xbd88efbd	-0.066863514
209	0xbdc2865b	-0.094982825
210	0xbc20941c	-0.009800937
211	0x3d2e41c1	0.042543177
212	0xbe0fd2ae	-0.14045212
213	0x3cd1168a	0.025523443
214	0x3d7bcb8f	0.061473425
215	0x3e06c318	0.1316036
216	0xbe6dc47b	-0.23219483
217	0x3d461fd2	0.04837019
218	0xbe232ba4	-0.15934616
219	0xbe3fa692	-0.18715885
220	0x3d65f48d	0.056141425
221	0xbd24c78f	-0.040229376
222	0x3d0a2ff5	0.03373714
223	0x3d2d07eb	0.04224388
224	0xbd96338a	-0.07334049
225	0xbe572b30	-0.21012568
226	0xbd1ec036	-0.038757525
227	0x3e16ab3c	0.14713758
228	0x3d510e41	0.051038984
229	0x3d41a2fc	0.047274575
230	0xbe17bfc6	-0.1481925
231	0x3d9a7979	0.075427
232	0xbdc6ac23	-0.09700801
233	0xbd72b6e1	-0.05925644
234	0xbdcb9d27	-0.09942084
235	0xbd9d3deb	-0.076778255
236	0xbd4a0db7	-0.049329486
237	0xbe695730	-0.22787166
238	0xbd7e0b0f	-0.062022265
239	0xbd1c65d7	-0.03818306
240	0xbd2f4303	-0.042788517
241	0xbdb795b6	-0.08964102
242	0xbdd02ffc	-0.10165402
243	0xbcaba7a4	-0.02095396
244	0x3c7ef048	0.015560217
245	0x38b8b7ca	8.808037e-05
246	0xbdfbfe28	-0.12304336
247	0xbd8ff3ca	-0.07028921
248	0xbc933f4d	-0.01797452
249	0xbdb5b4a2	-0.088723436
250	0xbcf945e2	-0.03042883
251	0xbcab7ccf	-0.020933537
252	0x3b65a4fb	0.0035040963
253	0x3defaf21	0.11703325
254	0xbcd16ffa	-0.02556609
255	0xbd40545b	-0.046955448

sequential_5/dense_15/MatMul i1 [512, 784] scale=0.010931669 zero_point=0
0	0xfe	-0.021863338
1	0x06	0.06559001
2	0xfe	-0.021863338
3	0x03	0.032795005
4	0xfc	-0.043726675
5	0x04	0.043726675
6	0xfc	-0.043726675
7	0xfc	-0.043726675
8	0x01	0.010931669
9	0x03	0.032795005
10	0x03	0.032795005
11	0xfa	-0.06559001
12	0x08	0.08745335
13	0x00	0.0
14	0xfe	-0.021863338
15	0x02	0.021863338
16	0x05	0.054658346
17	0x00	0.0
18	0xfc	-0.043726675
19	0xfb	-0.054658346
20	0xfe	-0.021863338
21	0x01	0.010931669
22	0xfd	-0.032795005
23	0x00	0.0
24	0xfb	-0.054658346
25	0x00	0.0
26	0x06	0.06559001
27	0x00	0.0
28	0x00	0.0
29	0x02	0.021863338
30	0xfc	-0.043726675
31	0xfc	-0.043726675
32	0xfa	-0.06559001
33	0x01	0.010931669
34	0x0a	0.10931669
35	0x0c	0.13118002
36	0x0f	0.16397503
37	0x0f	0.16397503
38	0x05	0.054658346
39	0x06	0.06559001
40	0x18	0.26236004
41	0x1f	0.33888173
42	0x0c	0.13118002
43	0x09	0.09838502
44	0x01	0.010931669
45	0x06	0.06559001
46	0x10	0.1749067
47	0x17	0.2514284
48	0x17	0.2514284
49	0x16	0.24049671
50	0x11	0.18583837
51	0x01	0.010931669
52	0x03	0.032795005
53	0x04	0.043726675
54	0x00	0.0
55	0x05	0.054658346
56	0x05	0.054658346
57	0x01	0.010931669
58	0x07	0.07652168
59	0x08	0.08745335
60	0x08	0.08745335
61	0x07	0.07652168
62	0x03	0.032795005
63	0x12	0.19677004
64	0x0a	0.10931669
65	0xf6	-0.10931669
66	0xe3	-0.3170184
67	0x16	0.24049671
68	0xfc	-0.043726675
69	0xf3	-0.14211169
70	0x08	0.08745335
71	0x0f	0.16397503
72	0x10	0.1749067
73	0x16	0.24049671
74	0x15	0.22956504
75	0x13	0.20770171
76	0x0d	0.14211169
77	0x1b	0.29515505
78	0x22	0.37167674
79	0x16	0.24049671
80	0x0f	0.16397503
81	0x03	0.032795005
82	0xfd	-0.032795005
83	0x05	0.054658346
84	0xff	-0.010931669
85	0x05	0.054658346
86	0xfe	-0.021863338
87	0x0d	0.14211169
88	0x1b	0.29515505
89	0x06	0.06559001
90	0xfb	-0.054658346
91	0x05	0.054658346
92	0xeb	-0.22956504
93	0xff	-0.010931669
94	0xe9	-0.2514284
95	0xe2	-0.32795006
96	0xe0	-0.3498134
97	0xfc	-0.043726675
98	0x0c	0.13118002
99	0xfd	-0.032795005
100	0xf8	-0.08745335
101	0x0c	0.13118002
102	0x0b	0.120248355
103	0x13	0.20770171
104	0x06	0.06559001
105	0x1f	0.33888173
106	0x0b	0.120248355
107	0x18	0.26236004
108	0x0f	0.16397503
109	0x01	0.010931669
110	0xfd	-0.032795005
111	0xfe	-0.021863338
112	0xff	-0.010931669
113	0x00	0.0
114	0xff	-0.010931669
115	0x08	0.08745335
116	0x03	0.032795005
117	0xfe	-0.021863338
118	0xf0	-0.1749067
119	0xf6	-0.10931669
120	0xe9	-0.2514284
121	0x00	0.0
122	0x04	0.043726675
123	0xf6	-0.10931669
124	0xfe	-0.021863338
125	0x0c	0.13118002
126	0x0c	0.13118002
127	0xec	-0.21863338
128	0xe5	-0.29515505
129	0xec	-0.21863338
130	0xf7	-0.09838502
131	0xf8	-0.08745335
132	0x0c	0.13118002
133	0x23	0.3826084
134	0x1e	0.32795006
135	0x30	0.5247201
136	0x0d	0.14211169
137	0x08	0.08745335
138	0xfa	-0.06559001
139	0x01	0.010931669
140	0xfc	-0.043726675
141	0xfc	-0.043726675
142	0xfe	-0.021863338
143	0x12	0.19677004
144	0xf9	-0.07652168
145	0xf9	-0.07652168
146	0xe4	-0.30608672
147	0xe1	-0.33888173
148	0xe3	-0.3170184
149	0xe3	-0.3170184
150	0xf7	-0.09838502
151	0x0d	0.14211169
152	0xfa	-0.06559001
153	0xf8	-0.08745335
154	0x06	0.06559001
155	0xec	-0.21863338
156	0xf6	-0.10931669
157	0xfe	-0.021863338
158	0x01	0.010931669
159	0xfc	-0.043726675
160	0x1b	0.29515505
161	0x25	0.40447176
162	0x2d	0.4919251
163	0x42	0.72149014
164	0x1d	0.3170184
165	0xfe	-0.021863338
166	0xfd	-0.032795005
167	0x02	0.021863338
168	0xfd	-0.032795005
169	0x03	0.032795005
170	0x01	0.010931669
171	0xed	-0.20770171
172	0xf6	-0.10931669
173	0xea	-0.24049671
174	0xe0	-0.3498134
175	0xf4	-0.13118002
176	0xeb	-0.22956504
177	0xd5	-0.47006175
178	0xf3	-0.14211169
179	0xff	-0.010931669
180	0xf9	-0.07652168
181	0xf9	-0.07652168
182	0x01	0.010931669
183	0xf5	-0.120248355
184	0xff	-0.010931669
185	0x07	0.07652168
186	0x07	0.07652168
187	0x15	0.22956504
188	0x25	0.40447176
189	0x14	0.21863338
190	0x1f	0.33888173
191	0x23	0.3826084
192	0x25	0.40447176
193	0x01	0.010931669
194	0x09	0.09838502
195	0xff	-0.010931669
196	0xfc	-0.043726675
197	0xf7	-0.09838502
198	0xf7	-0.09838502
199	0xf6	-0.10931669
200	0xe7	-0.2732917
201	0xed	-0.20770171
202	0xd6	-0.45913008
203	0xe7	-0.2732917
204	0xed	-0.20770171
205	0xed	-0.20770171
206	0x04	0.043726675
207	0x04	0.043726675
208	0xec	-0.21863338
209	0xef	-0.18583837
210	0xff	-0.010931669
211	0xf6	-0.10931669
212	0xfb	-0.054658346
213	0x02	0.021863338
214	0x04	0.043726675
215	0x02	0.021863338
216	0x06	0.06559001
217	0xf4	-0.13118002
218	0xf8	-0.08745335
219	0xf9	-0.07652168
220	0xf0	-0.1749067
221	0xf0	-0.1749067
222	0x12	0.19677004
223	0x03	0.032795005
224	0xfd	-0.032795005
225	0xfd	-0.032795005
226	0xf1	-0.16397503
227	0xee	-0.19677004
228	0xf9	-0.07652168
229	0xf2	-0.15304336
230	0xe2	-0.32795006
231	0xcf	-0.53565174
232	0xdc	-0.39354008
233	0xf0	-0.1749067
234	0xeb	-0.22956504
235	0xfe	-0.021863338
236	0xff	-0.010931669
237	0xf6	-0.10931669
238	0xe4	-0.30608672
239	0xe3	-0.3170184
240	0xfc	-0.043726675
241	0xf2	-0.15304336
242	0xdb	-0.40447176
243	0xd6	-0.45913008
244	0xcd	-0.5575151
245	0xca	-0.5903101
246	0xc2	-0.67776346
247	0xbb	-0.75428516
248	0xd3	-0.4919251
249	0xe5	-0.29515505
250	0xff	-0.010931669
251	0xfc	-0.043726675
252	0x06	0.06559001
253	0x00	0.0
254	0xf1	-0.16397503
255	0xfe	-0.021863338

sequential_5/dense_16/MatMul i1 [256, 512] scale=0.009941777 zero_point=0
0	0x0c	0.11930133
1	0x0a	0.099417776
2	0xd4	-0.4374382
3	0xfa	-0.059650663
4	0xeb	-0.20877732
5	0x0a	0.099417776
6	0x15	0.20877732
7	0x1a	0.2584862
8	0x0a	0.099417776
9	0xfe	-0.019883554
10	0xf5	-0.10935955
11	0xf4	-0.11930133
12	0x0c	0.11930133
13	0x12	0.178952
14	0x19	0.24854442
15	0xdc	-0.357904
16	0x00	0.0
17	0xca	-0.536856
18	0x02	0.019883554
19	0x03	0.029825332
20	0x0a	0.099417776
21	0x20	0.31813687
22	0xf4	-0.11930133
23	0xf4	-0.11930133
24	0xed	-0.18889377
25	0x01	0.009941777
26	0xfa	-0.059650663
27	0xe2	-0.29825333
28	0xf7	-0.089476
29	0xce	-0.49708885
30	0x0d	0.1292431
31	0xfd	-0.029825332
32	0x02	0.019883554
33	0xf9	-0.06959244
34	0x1a	0.2584862
35	0xed	-0.18889377
36	0xf4	-0.11930133
37	0xe8	-0.23860265
38	0x02	0.019883554
39	0x03	0.029825332
40	0x0f	0.14912666
41	0xd5	-0.42749643
42	0x0e	0.13918488
43	0xf8	-0.07953422
44	0xef	-0.1690102
45	0x17	0.22866088
46	0xec	-0.19883555
47	0x11	0.1690102
48	0x03	0.029825332
49	0x19	0.24854442
50	0xf2	-0.13918488
51	0xf0	-0.15906844
52	0xee	-0.178952
53	0x0e	0.13918488
54	0xcd	-0.50703067
55	0xfa	-0.059650663
56	0x07	0.06959244
57	0x03	0.029825332
58	0xe7	-0.24854442
59	0xfd	-0.029825332
60	0xf7	-0.089476
61	0x13	0.18889377
62	0xf9	-0.06959244
63	0xfb	-0.049708888
64	0xde	-0.3380204
65	0xf7	-0.089476
66	0x06	0.059650663
67	0xec	-0.19883555
68	0x0d	0.1292431
69	0x08	0.07953422
70	0xe8	-0.23860265
71	0x00	0.0
72	0x1a	0.2584862
73	0x14	0.19883555
74	0xfd	-0.029825332
75	0xec	-0.19883555
76	0x03	0.029825332
77	0xf8	-0.07953422
78	0xfc	-0.03976711
79	0xeb	-0.20877732
80	0x1d	0.28831154
81	0x02	0.019883554
82	0x2d	0.44737998
83	0x06	0.059650663
84	0x29	0.40761286
85	0xf9	-0.06959244
86	0x05	0.049708888
87	0xe9	-0.22866088
88	0x35	0.5269142
89	0xe7	-0.24854442
90	0xe7	-0.24854442
91	0xf7	-0.089476
92	0xd3	-0.44737998
93	0x1b	0.268428
94	0x04	0.03976711
95	0x25	0.36784574
96	0x06	0.059650663
97	0xd2	-0.45732176
98	0x0e	0.13918488
99	0x02	0.019883554
100	0xf0	-0.15906844
101	0x0e	0.13918488
102	0xfa	-0.059650663
103	0x03	0.029825332
104	0x11	0.1690102
105	0xf7	-0.089476
106	0x0d	0.1292431
107	0xe8	-0.23860265
108	0xfd	-0.029825332
109	0x24	0.357904
110	0xf8	-0.07953422
111	0x01	0.009941777
112	0xf0	-0.15906844
113	0xf9	-0.06959244
114	0x02	0.019883554
115	0x2e	0.45732176
116	0x05	0.049708888
117	0x10	0.15906844
118	0xfb	-0.049708888
119	0xcf	-0.4871471
120	0x0d	0.1292431
121	0x1d	0.28831154
122	0xed	-0.18889377
123	0xff	-0.009941777
124	0xc1	-0.626332
125	0xfe	-0.019883554
126	0xe1	-0.30819508
127	0x05	0.049708888
128	0x13	0.18889377
129	0xf1	-0.14912666
130	0xfb	-0.049708888
131	0xda	-0.37778753
132	0xfd	-0.029825332
133	0x0b	0.10935955
134	0x00	0.0
135	0xde	-0.3380204
136	0xf5	-0.10935955
137	0xee	-0.178952
138	0x1c	0.27836975
139	0x04	0.03976711
140	0xff	-0.009941777
141	0x17	0.22866088
142	0x0d	0.1292431
143	0xf4	-0.11930133
144	0x0d	0.1292431
145	0xff	-0.009941777
146	0xf7	-0.089476
147	0x14	0.19883555
148	0xfb	-0.049708888
149	0xf8	-0.07953422
150	0x19	0.24854442
151	0x21	0.32807866
152	0xe0	-0.31813687
153	0x0d	0.1292431
154	0xe8	-0.23860265
155	0x08	0.07953422
156	0x07	0.06959244
157	0x05	0.049708888
158	0x14	0.19883555
159	0x01	0.009941777
160	0xe0	-0.31813687
161	0xe1	-0.30819508
162	0x20	0.31813687
163	0xe3	-0.28831154
164	0x06	0.059650663
165	0xe9	-0.22866088
166	0x1b	0.268428
167	0x1c	0.27836975
168	0xfb	-0.049708888
169	0xee	-0.178952
170	0xfd	-0.029825332
171	0x18	0.23860265
172	0x01	0.009941777
173	0xe0	-0.31813687
174	0xec	-0.19883555
175	0x09	0.089476
176	0x0a	0.099417776
177	0xfa	-0.059650663
178	0x0f	0.14912666
179	0xf6	-0.099417776
180	0x0b	0.10935955
181	0x00	0.0
182	0xfa	-0.059650663
183	0x15	0.20877732
184	0x0a	0.099417776
185	0x0e	0.13918488
186	0x04	0.03976711
187	0x0c	0.11930133
188	0x0a	0.099417776
189	0x0f	0.14912666
190	0xfa	-0.059650663
191	0xdb	-0.36784574
192	0xf1	-0.14912666
193	0xef	-0.1690102
194	0x25	0.36784574
195	0xe6	-0.2584862
196	0x03	0.029825332
197	0x03	0.029825332
198	0x16	0.2187191
199	0xf6	-0.099417776
200	0x05	0.049708888
201	0x0a	0.099417776
202	0xf5	-0.10935955
203	0xe6	-0.2584862
204	0xd5	-0.42749643
205	0x04	0.03976711
206	0x05	0.049708888
207	0x06	0.059650663
208	0x0b	0.10935955
209	0x04	0.03976711
210	0xfb	-0.049708888
211	0x10	0.15906844
212	0x1b	0.268428
213	0xf9	-0.06959244
214	0x0e	0.13918488
215	0x15	0.20877732
216	0x14	0.19883555
217	0xff	-0.009941777
218	0x05	0.049708888
219	0xef	-0.1690102
220	0xde	-0.3380204
221	0xf9	-0.06959244
222	0x0d	0.1292431
223	0xef	-0.1690102
224	0x13	0.18889377
225	0x0d	0.1292431
226	0x06	0.059650663
227	0xe9	-0.22866088
228	0xc7	-0.5666813
229	0x26	0.37778753
230	0x02	0.019883554
231	0xfc	-0.03976711
232	0xfb	-0.049708888
233	0x03	0.029825332
234	0x05	0.049708888
235	0xf1	-0.14912666
236	0x0b	0.10935955
237	0xd6	-0.41755465
238	0x06	0.059650663
239	0x0b	0.10935955
240	0x17	0.22866088
241	0xf0	-0.15906844
242	0xe0	-0.31813687
243	0x00	0.0
244	0x0c	0.11930133
245	0x08	0.07953422
246	0xff	-0.009941777
247	0x15	0.20877732
248	0xfc	-0.03976711
249	0xe3	-0.28831154
250	0x00	0.0
251	0xf4	-0.11930133
252	0x28	0.3976711
253	0x07	0.06959244
254	0xfd	-0.029825332
255	0x05	0.049708888

sequential_5/dense_17/MatMul i1 [10, 256] scale=0.011536138 zero_point=0
0	0xf9	-0.08075297
1	0x01	0.011536138
2	0xfe	-0.023072276
3	0xfe	-0.023072276
4	0x0d	0.1499698
5	0x03	0.034608416
6	0xee	-0.20765048
7	0xf2	-0.16150594
8	0xec	-0.23072276
9	0x12	0.20765048
10	0xeb	-0.2422589
11	0xfe	-0.023072276
12	0xf3	-0.1499698
13	0xe8	-0.27686733
14	0x06	0.06921683
15	0xd8	-0.4614455
16	0xf1	-0.17304207
17	0xf7	-0.10382524
18	0x14	0.23072276
19	0x04	0.046144553
20	0xf8	-0.092289105
21	0x09	0.10382524
22	0xeb	-0.2422589
23	0xf8	-0.092289105
24	0x22	0.3922287
25	0xed	-0.21918662
26	0x01	0.011536138
27	0xfe	-0.023072276
28	0xfa	-0.06921683
29	0xfb	-0.05768069
30	0xe5	-0.31147572
31	0xe9	-0.26533118
32	0x08	0.092289105
33	0x0c	0.13843367
34	0xd3	-0.51912624
35	0x08	0.092289105
36	0x09	0.10382524
37	0xeb	-0.2422589
38	0xe7	-0.28840345
39	0x08	0.092289105
40	0x11	0.19611435
41	0xf6	-0.11536138
42	0x08	0.092289105
43	0xf3	-0.1499698
44	0xc1	-0.7267767
45	0xe1	-0.35762027
46	0xe4	-0.32301188
47	0x06	0.06921683
48	0xd8	-0.4614455
49	0xe4	-0.32301188
50	0xf3	-0.1499698
51	0xd6	-0.4845178
52	0x03	0.034608416
53	0x01	0.011536138
54	0xdc	-0.41530097
55	0x0d	0.1499698
56	0xff	-0.011536138
57	0xfa	-0.06921683
58	0xf2	-0.16150594
59	0xfa	-0.06921683
60	0xfa	-0.06921683
61	0xe0	-0.36915642
62	0xda	-0.43837324
63	0xf6	-0.11536138
64	0x14	0.23072276
65	0x16	0.25379503
66	0x0d	0.1499698
67	0x08	0.092289105
68	0x13	0.21918662
69	0x00	0.0
70	0x07	0.08075297
71	0xed	-0.21918662
72	0x0a	0.11536138
73	0xde	-0.3922287
74	0xca	-0.62295145
75	0xfc	-0.046144553
76	0x09	0.10382524
77	0x03	0.034608416
78	0xeb	-0.2422589
79	0xed	-0.21918662
80	0x0e	0.16150594
81	0xe8	-0.27686733
82	0xfe	-0.023072276
83	0x0c	0.13843367
84	0xf9	-0.08075297
85	0x03	0.034608416
86	0xfb	-0.05768069
87	0x09	0.10382524
88	0x0f	0.17304207
89	0x05	0.05768069
90	0xf5	-0.12689751
91	0xe7	-0.28840345
92	0xcf	-0.5652708
93	0xe4	-0.32301188
94	0xf6	-0.11536138
95	0xf4	-0.13843367
96	0x1c	0.32301188
97	0x0d	0.1499698
98	0xfe	-0.023072276
99	0xd0	-0.55373466
100	0xe9	-0.26533118
101	0x0b	0.12689751
102	0x13	0.21918662
103	0xfb	-0.05768069
104	0x0b	0.12689751
105	0xf5	-0.12689751
106	0xec	-0.23072276
107	0x06	0.06921683
108	0x05	0.05768069
109	0x03	0.034608416
110	0xef	-0.19611435
111	0xfc	-0.046144553
112	0xde	-0.3922287
113	0xf2	-0.16150594
114	0x0d	0.1499698
115	0xf1	-0.17304207
116	0xf5	-0.12689751
117	0xfe	-0.023072276
118	0x13	0.21918662
119	0xf2	-0.16150594
120	0xe2	-0.34608415
121	0xd8	-0.4614455
122	0x07	0.08075297
123	0x08	0.092289105
124	0xe5	-0.31147572
125	0x0d	0.1499698
126	0xff	-0.011536138
127	0x09	0.10382524
128	0x0b	0.12689751
129	0xec	-0.23072276
130	0x0d	0.1499698
131	0xfb	-0.05768069
132	0xe6	-0.2999396
133	0xd5	-0.49605393
134	0xfe	-0.023072276
135	0xf6	-0.11536138
136	0x0e	0.16150594
137	0xf9	-0.08075297
138	0x01	0.011536138
139	0xff	-0.011536138
140	0x18	0.27686733
141	0xe9	-0.26533118
142	0xf9	-0.08075297
143	0x05	0.05768069
144	0x17	0.26533118
145	0x0c	0.13843367
146	0xe9	-0.26533118
147	0x08	0.092289105
148	0x13	0.21918662
149	0xe3	-0.334548
150	0xdd	-0.40376484
151	0xd6	-0.4845178
152	0xec	-0.23072276
153	0xe4	-0.32301188
154	0xe4	-0.32301188
155	0x09	0.10382524
156	0xf1	-0.17304207
157	0x02	0.023072276
158	0xff	-0.011536138
159	0xea	-0.25379503
160	0x10	0.18457821
161	0xe6	-0.2999396
162	0x0c	0.13843367
163	0xe6	-0.2999396
164	0x0d	0.1499698
165	0x03	0.034608416
166	0xea	-0.25379503
167	0x07	0.08075297
168	0xf3	-0.1499698
169	0xf5	-0.12689751
170	0xea	-0.25379503
171	0xf9	-0.08075297
172	0x11	0.19611435
173	0x05	0.05768069
174	0xdd	-0.40376484
175	0xde	-0.3922287
176	0x04	0.046144553
177	0xec	-0.23072276
178	0x03	0.034608416
179	0xe8	-0.27686733
180	0x18	0.27686733
181	0xfd	-0.034608416
182	0x03	0.034608416
183	0xe8	-0.27686733
184	0x0d	0.1499698
185	0xdf	-0.38069257
186	0xdc	-0.41530097
187	0xe0	-0.36915642
188	0xfa	-0.06921683
189	0x0a	0.11536138
190	0x0c	0.13843367
191	0x17	0.26533118
192	0x10	0.18457821
193	0xea	-0.25379503
194	0xdf	-0.38069257
195	0xdb	-0.42683712
196	0x15	0.2422589
197	0xea	-0.25379503
198	0xf0	-0.18457821
199	0xdd	-0.40376484
200	0x02	0.023072276
201	0xf8	-0.092289105
202	0xfa	-0.06921683
203	0xe7	-0.28840345
204	0xe1	-0.35762027
205	0xe2	-0.34608415
206	0xef	-0.19611435
207	0x0c	0.13843367
208	0xfe	-0.023072276
209	0x0e	0.16150594
210	0xf5	-0.12689751
211	0xf5	-0.12689751
212	0xcd	-0.588343
213	0xef	-0.19611435
214	0xe9	-0.26533118
215	0xfa	-0.06921683
216	0x06	0.06921683
217	0x1d	0.334548
218	0xd7	-0.47298166
219	0xeb	-0.2422589
220	0xf1	-0.17304207
221	0xf2	-0.16150594
222	0x03	0.034608416
223	0x11	0.19611435
224	0x02	0.023072276
225	0xe4	-0.32301188
226	0x0b	0.12689751
227	0x07	0.08075297
228	0xeb	-0.2422589
229	0xed	-0.21918662
230	0xf7	-0.10382524
231	0x1e	0.34608415
232	0xf5	-0.12689751
233	0xe7	-0.28840345
234	0xf0	-0.18457821
235	0x09	0.10382524
236	0x12	0.20765048
237	0xff	-0.011536138
238	0xc8	-0.64602375
239	0xf3	-0.1499698
240	0xf0	-0.18457821
241	0x05	0.05768069
242	0x09	0.10382524
243	0x0f	0.17304207
244	0xfa	-0.06921683
245	0xd2	-0.53066236
246	0xd7	-0.47298166
247	0xe0	-0.36915642
248	0x09	0.10382524
249	0x04	0.046144553
250	0xf6	-0.11536138
251	0x10	0.18457821
252	0x11	0.19611435
253	0xd2	-0.53066236
254	0xf0	-0.18457821
255	0xd6	-0.4845178
